python/ML/MLFlow/mlruns/0/ae998dbe58d44289924b31d08c9d764e/artifacts/model/data/model.pth (torch, 37087 bytes, 2 tensors)

weight f4 [10, 784]
5.9049577e-05 0.015667584 0.01236932 0.012810886 0.0331175 0.0108541325 0.013392631 -0.007935498
-0.034452405 -0.010722902 0.025461297 0.0033824742 -0.031989194 -0.0038626418 0.019144952 -0.0042520426
0.02665497 0.005088873 0.029206377 -0.003795717 -0.008261511 0.018562507 0.0055500343 0.034192342
-0.034998976 0.012990624 0.025427107 0.016723756 0.0044112466 -0.03146693 -0.0019120909 -0.0097875055
-0.006581597 0.005209781 -0.02582259 -0.020991646 0.025139842 0.022186961 0.009990867 -0.019821653
-0.012247963 -0.097111724 -0.1360437 -0.114109345 -0.011266168 0.01850354 0.01054918 -0.016066259
-0.019137753 0.0316428 0.0011445954 -0.026175901 0.027223926 0.012557719 -0.0155489035 0.019929186
-0.0020200796 0.004185628 -0.034632843 -0.10677393 1.396405 -0.61557627 -2.046858 -1.7003835
-4.0296574 -2.7537947 -3.482908 -4.7531323 -3.208617 -8.613314 -10.477395 -10.896217
-8.574708 -8.058237 -7.581547 -2.066566 -5.319608 -2.8562915 -2.797632 0.01930802
-0.0337257 -0.014261501 0.007193215 0.013716735 -0.0045389626 -0.0043032095 0.03355011 -2.1494515
-1.7853776 -0.5917997 -2.7533038 -5.122327 -5.794485 -13.861383 -7.672058 -10.12802
-3.2230277 -3.1468787 -1.1277403 -0.59316045 0.6391479 -0.5725338 -3.0063438 -2.1966398
0.44075206 -4.769004 -2.4671226 4.9835634 -4.458947 3.6887467 -1.2760824 0.027674127
0.018889725 -0.013797522 -0.010636207 3.0471916 3.5011487 -3.3381553 -0.38496137 -0.28007907
2.578984 -0.13932802 -3.5464907 1.7135366 -1.3682528 2.3374412 -0.42931145 -1.097771
-2.5142415 -0.88105595 1.7258872 -1.0984907 -0.23652111 -2.4401333 -1.7656225 -0.8101045
-2.979822 -6.0350447 -1.2835872 0.0015061684 -0.024552606 -0.013223644 -0.81388533 3.6505346
3.262571 -5.1162944 -1.9065729 0.6413881 -0.7201304 1.6013027 2.4837465 -2.4528255
-1.1104605 0.18003584 2.9391356 1.0929459 2.981448 -0.70465344 -0.5619522 0.09891593
-0.32594928 -0.8326166 0.159504 -0.9255344 -0.5629336 -8.688871 -1.4474769 -1.1028814
-0.007845202 0.028751444 -0.6126857 -0.68354553 -1.9753736 -0.09635736 0.48318896 -3.3112292
-1.4230729 -2.6345792 1.3779471 -2.412389 1.2714229 0.21576768 1.4735794 0.88391805
-0.28085876 0.19877335 0.20388098 0.9468682 -3.3582697 1.0642966 4.1025534 -0.114628725
-3.4023445 -11.717712 0.18880466 2.2603765 -0.029517593 -0.009042518 -0.55449504 -2.8111727
-3.5571706 1.8159792 0.12635967 -1.0421339 -1.8192346 -0.6353752 0.16327943 3.300305
-0.22716944 0.04075499 -1.499346 0.9902708 -0.07820277 2.1468656 1.1091577 2.5572479
0.0033348699 -2.6432312 -2.5468464 -3.7857044 -5.4085946 -11.687618 -1.3869448 3.8788223
-0.016082866 -0.02785179 4.3295016 1.286376 -4.852625 -1.3689724 2.0389712 3.4301894
-0.70130175 -1.1122243 0.9410997 -2.428397 2.5041087 -0.029014483 2.95855 3.3545601
3.5642846 1.729242 2.7899742 0.86874515 2.6712844 3.333788 -2.329849 1.2228373
-4.6990848 -13.419581 -3.1524334 -0.03402242 -0.029989984 -0.108429715 4.3830056 -2.6633258
00000000: 00ac 7738 4e59 803c b0a8 4a3c c0e4 513c
00000010: 37a6 073d 88d5 313c c46c 5b3c e403 02bc
00000020: f71d 0dbd 1caf 2fbc 3694 d03c 80ac 5d3b
00000030: 1a07 03bd 6024 7dbb e0d5 9c3c b854 8bbb
00000040: 865b da3c 90c0 a63b 3642 ef3c 90c1 78bb
00000050: 4a5b 07bc 6610 983c 10dd b53b 450d 0c3d
00000060: 165b 0fbd a0d6 543c 824c d03c 4200 893c
00000070: 388c 903b 78e3 00bd 209f faba c65b 20bc
00000080: 70aa d7bb d0b6 aa3b e589 d3bc acf6 abbc
00000090: 12f2 cd3c 6ec1 b53c bcb0 233c 0561 a2bc
000000a0: aeab 48bc 83e2 c6bd 0a4f 0bbe 29b2 e9bd
000000b0: bc95 38bc bc94 973c 78d6 2c3c 639d 83bc
000000c0: c7c6 9cbc e19b 013d 4006 963a d86e d6bc
000000d0: b604 df3c e4be 4d3c d4c0 7ebc 8842 a33c
000000e0: 5063 04bb 9827 893b 2bdb 0dbd 4aac dabd
000000f0: 66bd b23f 6896 1dbf b9ff 02c0 2ba6 d9bf
00000100: f4f2 80c0 2c3e 30c0 f7e7 5ec0 a919 98c0
00000110: fb59 4dc0 22d0 09c1 69a3 27c1 e856 2ec1
00000120: 0132 09c1 8aee 00c1 089c f2c0 9e42 04c0
00000130: 3b3a aac0 7bcd 36c0 670c 33c0 da2b 9e3c
00000140: f623 0abd 12a9 69bc 10b5 eb3b 28bc 603c
00000150: 94bb 94bb f001 8dbb d76b 093d 9d90 09c0
00000160: 4187 e4bf 2f80 17bf 2136 30c0 1aea a3c0
00000170: 6c6c b9c0 3ac8 5dc1 8081 f5c0 5f0c 22c1
00000180: 1646 4ec0 7666 49c0 cb59 90bf 5dd9 17bf
00000190: 329f 233f 9391 12bf f067 40c0 bf95 0cc0
000001a0: 41aa e13e ae9b 98c0 56e5 1dc0 5a79 9f40
000001b0: b2af 8ec0 6d14 6c40 ab56 a3bf dab4 e23c
000001c0: a0be 9a3c 000f 62bc 7c43 2ebc 3005 4340
000001d0: d212 6040 56a4 55c0 a819 c5be 8666 8fbe
000001e0: 130e 2540 01ac 0ebe b4f9 62c0 2b55 db3f
000001f0: e822 afbf a398 1540 b6ce dbbe c383 8cbf
00000200: 55e9 20c0 e28c 61bf dfe9 dc3f 589b 8cbf
00000210: 9732 72be 252b 1cc0 ebff e1bf 0263 4fbf
00000220: 67b5 3ec0 161f c1c0 964c a4bf a06a c53a
00000230: 8c22 c9bc fca7 58bc ca5a 50bf 5ca2 6940
00000240: f7cd 5040 afb8 a3c0 950a f4bf 0332 243f
00000250: 775a 38bf 7df7 cc3f b4f5 1e40 18fb 1cc0
00000260: 9223 8ebf 515b 383e cc1a 3c40 a7e5 8b3f
00000270: 0bd0 3e40 2b64 34bf 19dc 0fbf 6f94 ca3d
00000280: d3e2 a6be 5d26 55bf 0455 233e d3ef 6cbf
00000290: 6b1c 10bf 9e05 0bc1 ec46 b9bf 382b 8dbf
000002a0: 2a89 00bc 2688 eb3c f8d8 1cbf d7fc 2ebf
000002b0: 0bd9 fcbf 0257 c5bd 8b64 f73e 2eeb 53c0
000002c0: 4127 b6bf f29c 28c0 9260 b03f 9564 1ac0
000002d0: fcbd a23f 34f2 5c3e 409e bc3f 7448 623f
000002e0: b8cc 8fbe 3e8b 4b3e 2dc6 503e f465 723f
000002f0: e4ed 56c0 df3a 883f 1e48 8340 77c2 eabd
00000300: 03c0 59c0 c07b 3bc1 0256 413e 02aa 1040
00000310: e1ce f1bc 1227 14bc 63f3 0dbf 41ea 33c0
00000320: afa8 63c0 0272 e83f 6e64 013e a564 85bf
00000330: aedc e8bf f3a7 22bf b932 273e 3238 5340
00000340: 1b9f 68be b4ee 263d 92ea bfbf 6382 7d3f
00000350: c628 a0bd 3f66 0940 e1f8 8d3f f3a9 2340
00000360: d58d 5a3b b32a 29c0 88ff 22c0 fb48 72c0
00000370: 3513 adc0 7c00 3bc1 6887 b1bf a03e 7840
00000380: 37c0 83bc 7029 e4bc 478b 8a40 f8a7 a43f
00000390: b448 9bc0 7d3a afbf 817e 0240 3988 5b40
000003a0: 8388 33bf 5e5d 8ebf e9eb 703f db6a 1bc0
000003b0: 5143 2040 c8af edbc e258 3d40 1db1 5640
000003c0: 3d1d 6440 cd57 dd3f f08e 3240 1566 5e3f
000003d0: 53f6 2a40 c85c 5540 3f1c 15c0 ef85 9c3f
000003e0: e75e 96c0 9bb6 56c1 78c1 49c0 185b 0bbd
000003f0: 8ead f5bc 6610 debd 9541 8c40 ee73 2ac0

bias f4 [10]
-11.56409 -3.034624 -0.0824818 -7.999392 -0.101037055 -0.15324545 -0.12218156 -0.5140335
-5.5389314 -5.593471
00000000: 8306 39c1 4837 42c0 38ec a8bd 05fb ffc0
00000010: 84ec cebd 60ec 1cbe 533a fabd b397 03bf
00000020: ed3e b1c0 b7fd b2c0
