python/ML/MLFlow/lightning_logs/version_3/checkpoints/epoch=19-step=37500.ckpt (torch, 98955 bytes, 6 tensors)

l1.weight f4 [10, 784]
00000000: 00ac 7738 4e59 803c b0a8 4a3c c0e4 513c
00000010: 37a6 073d 88d5 313c c46c 5b3c e403 02bc
00000020: f71d 0dbd 1caf 2fbc 3694 d03c 80ac 5d3b
00000030: 1a07 03bd 6024 7dbb e0d5 9c3c b854 8bbb
00000040: 865b da3c 90c0 a63b 3642 ef3c 90c1 78bb
00000050: 4a5b 07bc 6610 983c 10dd b53b 450d 0c3d
00000060: 165b 0fbd a0d6 543c 824c d03c 4200 893c
00000070: 388c 903b 78e3 00bd 209f faba c65b 20bc
00000080: 70aa d7bb d0b6 aa3b e589 d3bc acf6 abbc
00000090: 12f2 cd3c 6ec1 b53c bcb0 233c 0561 a2bc
000000a0: aeab 48bc 83e2 c6bd 0a4f 0bbe 29b2 e9bd
000000b0: bc95 38bc bc94 973c 78d6 2c3c 639d 83bc
000000c0: c7c6 9cbc e19b 013d 4006 963a d86e d6bc
000000d0: b604 df3c e4be 4d3c d4c0 7ebc 8842 a33c
000000e0: 5063 04bb 9827 893b 2bdb 0dbd 4aac dabd
000000f0: 66bd b23f 6896 1dbf b9ff 02c0 2ba6 d9bf
00000100: f4f2 80c0 2c3e 30c0 f7e7 5ec0 a919 98c0
00000110: fb59 4dc0 22d0 09c1 69a3 27c1 e856 2ec1
00000120: 0132 09c1 8aee 00c1 089c f2c0 9e42 04c0
00000130: 3b3a aac0 7bcd 36c0 670c 33c0 da2b 9e3c
00000140: f623 0abd 12a9 69bc 10b5 eb3b 28bc 603c
00000150: 94bb 94bb f001 8dbb d76b 093d 9d90 09c0
00000160: 4187 e4bf 2f80 17bf 2136 30c0 1aea a3c0
00000170: 6c6c b9c0 3ac8 5dc1 8081 f5c0 5f0c 22c1
00000180: 1646 4ec0 7666 49c0 cb59 90bf 5dd9 17bf
00000190: 329f 233f 9391 12bf f067 40c0 bf95 0cc0
000001a0: 41aa e13e ae9b 98c0 56e5 1dc0 5a79 9f40
000001b0: b2af 8ec0 6d14 6c40 ab56 a3bf dab4 e23c
000001c0: a0be 9a3c 000f 62bc 7c43 2ebc 3005 4340
000001d0: d212 6040 56a4 55c0 a819 c5be 8666 8fbe
000001e0: 130e 2540 01ac 0ebe b4f9 62c0 2b55 db3f
000001f0: e822 afbf a398 1540 b6ce dbbe c383 8cbf
00000200: 55e9 20c0 e28c 61bf dfe9 dc3f 589b 8cbf
00000210: 9732 72be 252b 1cc0 ebff e1bf 0263 4fbf
00000220: 67b5 3ec0 161f c1c0 964c a4bf a06a c53a
00000230: 8c22 c9bc fca7 58bc ca5a 50bf 5ca2 6940
00000240: f7cd 5040 afb8 a3c0 950a f4bf 0332 243f
00000250: 775a 38bf 7df7 cc3f b4f5 1e40 18fb 1cc0
00000260: 9223 8ebf 515b 383e cc1a 3c40 a7e5 8b3f
00000270: 0bd0 3e40 2b64 34bf 19dc 0fbf 6f94 ca3d
00000280: d3e2 a6be 5d26 55bf 0455 233e d3ef 6cbf
00000290: 6b1c 10bf 9e05 0bc1 ec46 b9bf 382b 8dbf
000002a0: 2a89 00bc 2688 eb3c f8d8 1cbf d7fc 2ebf
000002b0: 0bd9 fcbf 0257 c5bd 8b64 f73e 2eeb 53c0
000002c0: 4127 b6bf f29c 28c0 9260 b03f 9564 1ac0
000002d0: fcbd a23f 34f2 5c3e 409e bc3f 7448 623f
000002e0: b8cc 8fbe 3e8b 4b3e 2dc6 503e f465 723f
000002f0: e4ed 56c0 df3a 883f 1e48 8340 77c2 eabd
00000300: 03c0 59c0 c07b 3bc1 0256 413e 02aa 1040
00000310: e1ce f1bc 1227 14bc 63f3 0dbf 41ea 33c0
00000320: afa8 63c0 0272 e83f 6e64 013e a564 85bf
00000330: aedc e8bf f3a7 22bf b932 273e 3238 5340
00000340: 1b9f 68be b4ee 263d 92ea bfbf 6382 7d3f
00000350: c628 a0bd 3f66 0940 e1f8 8d3f f3a9 2340
00000360: d58d 5a3b b32a 29c0 88ff 22c0 fb48 72c0
00000370: 3513 adc0 7c00 3bc1 6887 b1bf a03e 7840
00000380: 37c0 83bc 7029 e4bc 478b 8a40 f8a7 a43f
00000390: b448 9bc0 7d3a afbf 817e 0240 3988 5b40
000003a0: 8388 33bf 5e5d 8ebf e9eb 703f db6a 1bc0
000003b0: 5143 2040 c8af edbc e258 3d40 1db1 5640
000003c0: 3d1d 6440 cd57 dd3f f08e 3240 1566 5e3f
000003d0: 53f6 2a40 c85c 5540 3f1c 15c0 ef85 9c3f
000003e0: e75e 96c0 9bb6 56c1 78c1 49c0 185b 0bbd
000003f0: 8ead f5bc 6610 debd 9541 8c40 ee73 2ac0
5.9049577e-05 0.015667584 0.01236932 0.012810886 0.0331175 0.0108541325 0.013392631 -0.007935498
-0.034452405 -0.010722902 0.025461297 0.0033824742 -0.031989194 -0.0038626418 0.019144952 -0.0042520426
0.02665497 0.005088873 0.029206377 -0.003795717 -0.008261511 0.018562507 0.0055500343 0.034192342
-0.034998976 0.012990624 0.025427107 0.016723756 0.0044112466 -0.03146693 -0.0019120909 -0.0097875055
-0.006581597 0.005209781 -0.02582259 -0.020991646 0.025139842 0.022186961 0.009990867 -0.019821653
-0.012247963 -0.097111724 -0.1360437 -0.114109345 -0.011266168 0.01850354 0.01054918 -0.016066259
-0.019137753 0.0316428 0.0011445954 -0.026175901 0.027223926 0.012557719 -0.0155489035 0.019929186
-0.0020200796 0.004185628 -0.034632843 -0.10677393 1.396405 -0.61557627 -2.046858 -1.7003835
-4.0296574 -2.7537947 -3.482908 -4.7531323 -3.208617 -8.613314 -10.477395 -10.896217
-8.574708 -8.058237 -7.581547 -2.066566 -5.319608 -2.8562915 -2.797632 0.01930802
-0.0337257 -0.014261501 0.007193215 0.013716735 -0.0045389626 -0.0043032095 0.03355011 -2.1494515
-1.7853776 -0.5917997 -2.7533038 -5.122327 -5.794485 -13.861383 -7.672058 -10.12802
-3.2230277 -3.1468787 -1.1277403 -0.59316045 0.6391479 -0.5725338 -3.0063438 -2.1966398
0.44075206 -4.769004 -2.4671226 4.9835634 -4.458947 3.6887467 -1.2760824 0.027674127
0.018889725 -0.013797522 -0.010636207 3.0471916 3.5011487 -3.3381553 -0.38496137 -0.28007907
2.578984 -0.13932802 -3.5464907 1.7135366 -1.3682528 2.3374412 -0.42931145 -1.097771
-2.5142415 -0.88105595 1.7258872 -1.0984907 -0.23652111 -2.4401333 -1.7656225 -0.8101045
-2.979822 -6.0350447 -1.2835872 0.0015061684 -0.024552606 -0.013223644 -0.81388533 3.6505346
3.262571 -5.1162944 -1.9065729 0.6413881 -0.7201304 1.6013027 2.4837465 -2.4528255
-1.1104605 0.18003584 2.9391356 1.0929459 2.981448 -0.70465344 -0.5619522 0.09891593
-0.32594928 -0.8326166 0.159504 -0.9255344 -0.5629336 -8.688871 -1.4474769 -1.1028814
-0.007845202 0.028751444 -0.6126857 -0.68354553 -1.9753736 -0.09635736 0.48318896 -3.3112292
-1.4230729 -2.6345792 1.3779471 -2.412389 1.2714229 0.21576768 1.4735794 0.88391805
-0.28085876 0.19877335 0.20388098 0.9468682 -3.3582697 1.0642966 4.1025534 -0.114628725
-3.4023445 -11.717712 0.18880466 2.2603765 -0.029517593 -0.009042518 -0.55449504 -2.8111727
-3.5571706 1.8159792 0.12635967 -1.0421339 -1.8192346 -0.6353752 0.16327943 3.300305
-0.22716944 0.04075499 -1.499346 0.9902708 -0.07820277 2.1468656 1.1091577 2.5572479
0.0033348699 -2.6432312 -2.5468464 -3.7857044 -5.4085946 -11.687618 -1.3869448 3.8788223
-0.016082866 -0.02785179 4.3295016 1.286376 -4.852625 -1.3689724 2.0389712 3.4301894
-0.70130175 -1.1122243 0.9410997 -2.428397 2.5041087 -0.029014483 2.95855 3.3545601
3.5642846 1.729242 2.7899742 0.86874515 2.6712844 3.333788 -2.329849 1.2228373
-4.6990848 -13.419581 -3.1524334 -0.03402242 -0.029989984 -0.108429715 4.3830056 -2.6633258

l1.bias f4 [10]
00000000: 8306 39c1 4837 42c0 38ec a8bd 05fb ffc0
00000010: 84ec cebd 60ec 1cbe 533a fabd b397 03bf
00000020: ed3e b1c0 b7fd b2c0
-11.56409 -3.034624 -0.0824818 -7.999392 -0.101037055 -0.15324545 -0.12218156 -0.5140335
-5.5389314 -5.593471

exp_avg f4 [10, 784]
00000000: 0000 0000 0000 0000 0000 0000 0000 0000
00000010: 0000 0000 0000 0000 0000 0000 0000 0000
00000020: 0000 0000 0000 0000 0000 0000 0000 0000
00000030: 0000 0000 0000 0000 0000 0000 0000 0000
00000040: 0000 0000 0000 0000 0000 0000 0000 0000
00000050: 0000 0000 0000 0000 0000 0000 0000 0000
00000060: 0000 0000 0000 0000 0000 0000 0000 0000
00000070: 0000 0000 0000 0000 0000 0000 0000 0000
00000080: 0000 0000 0000 0000 0000 0000 0000 0000
00000090: 0000 0000 0000 0000 0000 0000 0000 0000
000000a0: 0000 0000 0400 0000 0400 0000 0400 0000
000000b0: 0000 0000 0000 0000 0000 0000 0000 0000
000000c0: 0000 0000 0000 0000 0000 0000 0000 0000
000000d0: 0000 0000 0000 0000 0000 0000 0000 0000
000000e0: 0000 0000 0000 0000 0000 0000 0400 0080
000000f0: 0400 0080 0400 0000 0400 0000 0400 0000
00000100: 0400 0000 0400 0000 0400 0000 0400 0000
00000110: 0400 0080 a8e9 30b4 0934 e9b3 31c0 810a
00000120: 4388 21a5 4388 21a5 53cf 1b99 ab68 8b99
00000130: 0400 0000 0400 0000 0400 0000 0000 0000
00000140: 0000 0000 0000 0000 0000 0000 0000 0000
00000150: 0000 0000 0000 0000 0000 0000 0400 0000
00000160: 0400 0080 0400 0080 0400 0080 0400 0080
00000170: 174f 9b9e 9739 c19e f77a 94a8 095e 8cb7
00000180: f6af 32b8 9bd9 1639 9e3a 6539 8cf5 98b6
00000190: dc80 a2b8 0281 d4b8 e280 1fb9 b8b1 1fb9
000001a0: 8be3 b5b8 0b12 07b7 f0fc 00b4 4078 23b3
000001b0: 5303 0080 f400 0080 0400 0000 0000 0000
000001c0: 0000 0000 0000 0000 0000 0000 0400 0080
000001d0: 0400 0080 0400 0080 0400 0080 dac1 5ca6
000001e0: be7a 49b4 b4b3 a3b5 4c84 dfb6 377c 8db8
000001f0: 1c7d 8238 4c8b 4239 405b 1639 a4ee 5eb7
00000200: 1c98 1eb9 2db4 1fb9 b2c5 1fb9 11de 1eb9
00000210: c772 1eb9 dc8a 98b7 32cd 71b4 c4d1 04b3
00000220: 8301 0080 1700 0080 0400 0000 0000 0000
00000230: 0000 0000 0000 0000 0400 0000 0400 0080
00000240: 5037 5605 0f90 25a6 07cf 36a8 48dc 29a9
00000250: 8fc6 4fb6 3797 b6b7 97ef 04b8 48cc 9cb8
00000260: b7b1 ffb7 4031 8938 5bd2 c838 2f29 7535
00000270: ccd5 07b9 e10c 14b9 a170 80b9 3456 95b8
00000280: 6094 5338 ae5f 1239 f485 3939 d3ed 1738
00000290: 0400 0080 0400 0080 0400 0000 0400 0000
000002a0: 0000 0000 0000 0000 0400 0000 0400 0000
000002b0: 1f38 6206 10da d5a8 3503 5fa9 1b73 b7a9
000002c0: 6b33 17b5 49ec f5b6 4628 8db8 5720 0bb9
000002d0: fb58 aeb9 29e7 8eb9 0d35 44b9 e9d6 9eb9
000002e0: 6c0c 8db9 d943 c736 4e9c 5bb9 9a23 b1b8
000002f0: 4bfb 0fb9 ae98 dfb8 4ac6 9937 5461 ce38
00000300: a2eb aaa8 0400 0080 0400 0080 0400 0080
00000310: 0000 0000 0000 0000 0400 0000 0400 0000
00000320: f15b 3006 0cab 1ea9 0c1c 97b4 f641 9ab6
00000330: cc9d f6b6 67a1 19b9 36e9 5cb9 b95b acb9
00000340: e09b 9eb9 3077 33b9 f9d5 47b9 148c 2bb9
00000350: 78cf 57b9 cfea 57b9 a910 a5b9 9619 11ba
00000360: 8138 01ba 3e2f cbb9 c0af 47b9 e928 4737
00000370: afed 9738 ca7a cda4 0400 0080 0400 0080
00000380: 0000 0000 0000 0000 f92a 85ae fd7b a0ae
00000390: ed4c 1911 6380 19a3 b4b3 a3b5 31af c6b7
000003a0: bf25 c7b7 18c9 ceb9 2603 0dba 58e9 74b9
000003b0: 6bf2 adb8 4f65 7637 d8e9 1fb9 1807 21b9
000003c0: 8bb3 61b9 2f48 deb9 04b7 14ba e6f9 29ba
000003d0: 6f15 48ba 584b 21ba 2186 a5b9 6479 8bb9
000003e0: a053 1038 b8f4 0aaf 0400 0000 0000 0000
000003f0: 0000 0000 0400 0000 2788 daad 1995 08ae
0.0 0.0 0.0 0.0 0.0 0.0 0.0 0.0
0.0 0.0 0.0 0.0 0.0 0.0 0.0 0.0
0.0 0.0 0.0 0.0 0.0 0.0 0.0 0.0
0.0 0.0 0.0 0.0 0.0 0.0 0.0 0.0
0.0 0.0 0.0 0.0 0.0 0.0 0.0 0.0
0.0 6e-45 6e-45 6e-45 0.0 0.0 0.0 0.0
0.0 0.0 0.0 0.0 0.0 0.0 0.0 0.0
0.0 0.0 0.0 -6e-45 -6e-45 6e-45 6e-45 6e-45
6e-45 6e-45 6e-45 6e-45 -6e-45 -1.6476281e-07 -1.0859373e-07 1.2494543e-32
-1.4010691e-16 -1.4010691e-16 -8.055181e-24 -1.4414538e-23 6e-45 6e-45 6e-45 0.0
0.0 0.0 0.0 0.0 0.0 0.0 0.0 6e-45
-6e-45 -6e-45 -6e-45 -6e-45 -1.6443974e-20 -2.0458488e-20 -1.6484628e-14 -1.6733089e-05
-4.2602383e-05 0.00014386179 0.00021860978 -4.5585384e-06 -7.748764e-05 -0.00010132977 -0.00015211434 -0.00015229627
-8.673136e-05 -8.050828e-06 -1.2012947e-07 -3.806076e-08 -1.193e-42 -3.42e-43 6e-45 0.0
0.0 0.0 0.0 -6e-45 -6e-45 -6e-45 -6e-45 -7.659055e-16
-1.8764237e-07 -1.2196747e-06 -6.6613193e-06 -6.746541e-05 6.2221865e-05 0.00018553174 0.00014339108 -1.3287794e-05
-0.0001512472 -0.00015230542 -0.00015237069 -0.0001515078 -0.00015110812 -1.8184473e-05 -2.2519524e-07 -3.0924426e-08
-5.42e-43 -3.2e-44 6e-45 0.0 0.0 0.0 6e-45 -6e-45
1.0072391e-35 -5.744111e-16 -1.0147921e-14 -3.7716602e-14 -3.096098e-06 -2.1766506e-05 -3.1694388e-05 -7.47671e-05
-3.0481124e-05 6.5418426e-05 9.575925e-05 9.132954e-07 -0.00012954249 -0.00014119178 -0.00024497978 -7.12093e-05
5.0444505e-05 0.00013959288 0.00017692876 3.6222697e-05 -6e-45 -6e-45 6e-45 6e-45
0.0 0.0 6e-45 6e-45 4.2547107e-35 -2.374232e-14 -4.951873e-14 -8.1468e-14
-5.6326706e-07 -7.329076e-06 -6.7309054e-05 -0.0001326812 -0.00033254162 -0.00027256578 -0.0001871178 -0.0003029623
-0.0002690287 5.9385607e-06 -0.00020943696 -8.446649e-05 -0.00013731157 -0.000106619074 1.8331357e-05 9.840974e-05
-1.8975981e-14 -6e-45 -6e-45 -6e-45 0.0 0.0 6e-45 6e-45
3.316947e-35 -3.5231407e-14 -2.8146349e-07 -4.5972365e-06 -7.3497413e-06 -0.00014651344 -0.00021067713 -0.00032874735
-0.00030252244 -0.00017115171 -0.0001905783 -0.00016360014 -0.00020581286 -0.00020591471 -0.00031483665 -0.00055351236
-0.0004929379 -0.00038754375 -0.00019043591 1.1870849e-05 7.244513e-05 -8.911259e-17 -6e-45 -6e-45
0.0 0.0 -6.055773e-11 -7.2979824e-11 1.2093276e-28 -8.3213336e-18 -1.2196747e-06 -2.368502e-05
-2.3740226e-05 -0.00039441208 -0.00053791923 -0.0002335658 -8.294437e-05 1.468633e-05 -0.00015250535 -0.00015356799
-0.00021524557 -0.0004239692 -0.00056730234 -0.0006484076 -0.00076325884 -0.00061528897 -0.00031571186 -0.0002660259
3.4410157e-05 -1.2637968e-10 6e-45 0.0 0.0 6e-45 -2.4844194e-11 -3.1055245e-11

exp_avg_sq f4 [10, 784]
00000000: 0000 0000 0000 0000 0000 0000 0000 0000
00000010: 0000 0000 0000 0000 0000 0000 0000 0000
00000020: 0000 0000 0000 0000 0000 0000 0000 0000
00000030: 0000 0000 0000 0000 0000 0000 0000 0000
00000040: 0000 0000 0000 0000 0000 0000 0000 0000
00000050: 0000 0000 0000 0000 0000 0000 0000 0000
00000060: 0000 0000 0000 0000 0000 0000 0000 0000
00000070: 0000 0000 0000 0000 0000 0000 0000 0000
00000080: 0000 0000 0000 0000 0000 0000 0000 0000
00000090: 0000 0000 0000 0000 0000 0000 0000 0000
000000a0: 0000 0000 527c 8e17 f4d5 d718 6971 3c16
000000b0: 0000 0000 0000 0000 0000 0000 0000 0000
000000c0: 0000 0000 0000 0000 0000 0000 0000 0000
000000d0: 0000 0000 0000 0000 0000 0000 0000 0000
000000e0: 0000 0000 0000 0000 0000 0000 7edb 9717
000000f0: d469 ec14 f065 4022 7907 1829 6795 062a
00000100: 0da3 3129 7648 f729 f99f e629 198e 252a
00000110: e7b5 992a 1929 c532 7a6e 8f33 2fe1 c331
00000120: 17ae 5934 6dcf a331 2b35 f930 0739 3131
00000130: e916 2430 fb83 c621 6555 2c20 0000 0000
00000140: 0000 0000 0000 0000 0000 0000 0000 0000
00000150: 0000 0000 0000 0000 0000 0000 8b11 5028
00000160: 52e2 2a2c 6b31 1925 5ba8 512a be86 022f
00000170: 4eb1 332f a155 f732 5172 b634 593b 7135
00000180: a43c 9c35 e0b1 0036 79b9 ef35 cef0 7635
00000190: aad9 ce35 8417 d635 d4ed ac35 6011 8f35
000001a0: 14b3 3f35 5889 2634 75e6 1032 36c0 2d30
000001b0: 4135 0f2f caee 432f 58d2 3b2d 0000 0000
000001c0: 0000 0000 0000 0000 0000 0000 2af7 1e32
000001d0: 03f7 1e30 eb0f ac28 fd28 0b30 ef6b 2731
000001e0: 1b2f d733 7e10 6a35 ce48 c035 f96e 1836
000001f0: 3a3a 8e36 5d57 cf36 218a 0337 e55d 0a37
00000200: 6aa8 0937 cc38 c236 63bf 9836 adbc 8136
00000210: a59a 3b36 12dc 9f35 2a5a e734 13d8 7e34
00000220: d09d 4933 3bb7 342f ca0b 992b 0000 0000
00000230: 0000 0000 0000 0000 eccb 2915 6492 df32
00000240: 524e 8d2f 91af b82f 190b 1932 53fc ba33
00000250: 7c5a 6135 2a1b e235 e37e 5036 ac45 cd36
00000260: 7322 1937 89d7 3f37 fae8 5d37 5231 7637
00000270: d764 7937 89ef 5a37 f13c 1837 c514 ff36
00000280: 57bf ce36 60d2 7036 a189 9435 5e2e d934
00000290: e7ab a133 8054 112f 16d6 3a25 0dd8 8726
000002a0: 0000 0000 0000 0000 5440 e214 79a4 7517
000002b0: 6041 022b 4213 a532 ba85 9533 9a81 a735
000002c0: fb6c 2c36 35de 7936 ca52 cc36 c40a 2537
000002d0: 416e 4037 0476 5437 dea7 8137 5987 8d37
000002e0: 65c5 9837 3d91 9237 b774 8637 c5fd 4a37
000002f0: 3586 2a37 bffc dc36 7734 5836 afe1 a635
00000300: d5ba e533 d555 e332 bc80 fa2e 115f ac31
00000310: 0000 0000 0000 0000 d854 1619 fc11 0022
00000320: 45cb 212b 7185 bb33 72cb 7435 3cee 1f36
00000330: ff12 5136 a9bc b136 c857 0737 312f 2937
00000340: 3049 4b37 a796 8037 0d20 8737 d207 8737
00000350: 1742 8f37 43a3 9237 38dd 8a37 5e7f 7937
00000360: dc0b 6337 ee4a 2c37 2a54 ce36 19a4 1e36
00000370: 9f31 0d35 eca5 4432 a57c fa2e 56c7 bf32
00000380: 0000 0000 0000 0000 39f8 ad2b 42aa fc2b
00000390: ed46 7732 5aff f934 064d f135 9840 2836
000003a0: 3fd1 9236 4984 0637 7530 4137 831b 6c37
000003b0: a6b0 7d37 404c 8437 941f 8137 b3c8 8837
000003c0: 352e 9537 fbbf 9637 1579 8937 ca98 8537
000003d0: d813 7137 c5c3 5137 4cc5 fe36 37dd 8336
000003e0: 849a b035 f515 1e33 d06e 511c 0000 0000
000003f0: 0000 0000 7024 9215 923f 6a2a 7673 1c2c
0.0 0.0 0.0 0.0 0.0 0.0 0.0 0.0
0.0 0.0 0.0 0.0 0.0 0.0 0.0 0.0
0.0 0.0 0.0 0.0 0.0 0.0 0.0 0.0
0.0 0.0 0.0 0.0 0.0 0.0 0.0 0.0
0.0 0.0 0.0 0.0 0.0 0.0 0.0 0.0
0.0 9.207918e-25 5.5792235e-24 1.5222305e-25 0.0 0.0 0.0 0.0
0.0 0.0 0.0 0.0 0.0 0.0 0.0 0.0
0.0 0.0 0.0 9.813554e-25 2.3871652e-26 2.6074817e-18 3.375726e-14 1.1953425e-13
3.944332e-14 1.09815735e-13 1.02418027e-13 1.4704244e-13 2.730448e-13 2.2952507e-08 6.679052e-08 5.7008473e-09
2.0273033e-07 4.767506e-09 1.8132246e-09 2.5789306e-09 5.969541e-10 1.3451937e-18 1.4597221e-19 0.0
0.0 0.0 0.0 0.0 0.0 0.0 0.0 1.15501235e-14
2.4284086e-12 1.3287378e-16 1.8621339e-13 1.1871301e-10 1.6342946e-10 2.8793524e-08 3.3983318e-07 8.986586e-07
1.1640554e-06 1.9177023e-06 1.7860867e-06 9.199256e-07 1.5411545e-06 1.5951086e-06 1.2884216e-06 1.0659387e-06
7.141364e-07 1.550992e-07 8.434303e-09 6.321018e-10 1.3024694e-10 1.7819982e-10 1.0676425e-11 0.0
0.0 0.0 0.0 9.253009e-09 5.783109e-10 1.910274e-14 5.0626153e-10 2.4363052e-09
1.0020286e-07 8.719579e-07 1.4326304e-06 2.271436e-06 4.2387082e-06 6.179251e-06 7.840369e-06 8.2473025e-06
8.205048e-06 5.7882626e-06 4.5522333e-06 3.8664643e-06 2.7955186e-06 1.1910472e-06 4.3092706e-07 2.3734201e-07
4.694249e-08 1.6436001e-10 1.0874576e-12 0.0 0.0 0.0 3.4290144e-26 2.6027188e-08
2.57034e-10 3.3594152e-10 8.908295e-09 8.7071975e-08 8.3950704e-07 1.6846218e-06 3.1068273e-06 6.117587e-06
9.1275315e-06 1.143467e-05 1.3226871e-05 1.4674226e-05 1.4865035e-05 1.3049584e-05 9.074095e-06 7.60201e-06
6.1615533e-06 3.5885241e-06 1.1066915e-06 4.0453136e-07 7.5284156e-08 1.3217694e-10 1.6205463e-16 9.426067e-16
0.0 0.0 2.2845541e-26 7.9371363e-25 4.6276004e-13 1.9217286e-08 6.962678e-08 1.2480189e-06
2.5693432e-06 3.7233233e-06 6.0893117e-06 9.837273e-06 1.1469762e-05 1.2663662e-05 1.5456168e-05 1.6871536e-05
1.8211731e-05 1.7472188e-05 1.6028394e-05 1.2099224e-05 1.0164037e-05 6.5859344e-06 3.2217047e-06 1.2433646e-06
1.0697628e-07 2.646531e-08 1.13915516e-10 5.0166666e-09 0.0 0.0 7.771952e-24 1.7356756e-18
5.7480783e-13 8.732139e-08 9.1193135e-07 2.3831517e-06 3.1154484e-06 5.296974e-06 8.067065e-06 1.0084173e-05
1.2116783e-05 1.5328942e-05 1.6108179e-05 1.6096896e-05 1.7077704e-05 1.7480581e-05 1.6553895e-05 1.48712115e-05
1.3533016e-05 1.0269445e-05 6.1490764e-06 2.3639352e-06 5.25988e-07 1.1446428e-08 1.1390825e-10 2.2325974e-08
0.0 0.0 1.2361285e-12 1.7952933e-12 1.4393419e-08 4.6565657e-07 1.7978316e-06 2.507155e-06
4.3754985e-06 8.017822e-06 1.1514979e-05 1.4073102e-05 1.5121104e-05 1.5771133e-05 1.5392703e-05 1.6305921e-05
1.7783701e-05 1.7970791e-05 1.6388056e-05 1.5925983e-05 1.436934e-05 1.2502952e-05 7.5927583e-06 3.929857e-06
1.3157992e-06 3.680721e-08 6.929552e-22 0.0 0.0 5.902642e-26 2.080543e-13 2.2233027e-12

exp_avg f4 [10]
00000000: b411 04ba 372b caba 6478 8f3a f421 92ba
00000010: 0400 0000 0400 0000 0400 0000 359b 893b
00000020: 0400 0000 9873 4bbb
-0.00050380384 -0.0015424256 0.0010945913 -0.0011149035 6e-45 6e-45 6e-45 0.0041994103
6e-45 -0.003104424

exp_avg_sq f4 [10]
00000000: 1526 2138 694b 4f38 510f c238 185c cf38
00000010: be30 971b 98ac ec19 f0db 181a 7c0a 1b39
00000020: 3423 3e23 c096 aa39
3.8420858e-05 4.9422877e-05 9.253494e-05 9.887683e-05 2.5012353e-22 2.4471538e-23 3.1610527e-23 0.00014785858
1.0307375e-17 0.00032537244
